stage/chars.onnx (onnx, 39799 bytes, 6 tensors)

fc.0.weight f4 [37, 128]
0.21437117 0.17088972 -0.13256092 -0.16340768 0.12521976 0.04548357 0.11302526 0.055498756
0.08836684 -0.017197626 -0.21931441 -0.25773838 0.2213317 0.17367737 -0.089659646 0.008916431
0.26352343 -0.05205621 0.24406257 0.09108131 -0.095510244 0.09312222 0.1462031 0.040399127
0.3231648 0.009652697 0.21334776 0.13228923 -0.14346708 -0.05687071 -0.18189077 -0.17198035
0.1454379 0.1345869 -0.103784405 0.12916097 0.1119698 -0.19549586 0.26595175 0.23242031
-0.24002767 -0.22362532 -0.22913752 -0.077127434 -0.10544105 -0.04989499 -0.11384763 -0.21758607
-0.15674385 -0.12444815 0.059880745 0.067719094 0.13893057 0.21850006 -0.14409664 -0.091413684
0.09042108 0.20416056 -0.18085028 -0.21811172 0.14198254 0.0864905 0.1703172 0.037634887
-0.22602504 -0.25190508 -0.18249384 -0.075193316 0.21473154 0.21179712 -0.0825263 0.10623307
0.13130344 0.15608539 0.06369072 0.08059071 -0.03266997 -0.05681588 -0.23028652 -0.19016612
0.026506865 0.008890751 -0.2343144 -0.17509599 0.19687092 0.21913211 -0.1784422 -0.016293686
0.05749514 0.1894546 -0.23778825 -0.24176265 -0.05858619 0.17532285 -0.18372762 -0.038498566
-0.052174956 -0.14708135 0.070212126 0.042680915 0.23930427 -0.14359024 0.2172074 0.13760993
-0.19716412 -0.2094614 -0.27508566 -0.2356476 0.07428225 0.10081963 -0.21612643 -0.21296903
-0.039451838 -0.014816247 -0.23657206 -0.25010365 -0.04782882 -0.1957211 0.18366279 0.14728178
-0.15291382 -0.1991832 0.14202608 0.0688771 0.014502512 0.04116952 -0.1325882 -0.20062979
0.49496078 -0.2222335 0.32282907 -0.19708979 -0.4538286 -0.30774143 -0.1995381 -0.17413811
-0.31265014 0.40785715 0.2580074 0.32447386 -0.36527523 -0.25187168 0.17320971 0.31064752
-0.41248307 0.075748995 -0.2606827 0.04037369 0.2271082 -0.32924694 -0.23385887 -0.24649431
-0.37294903 -0.21262717 -0.39002794 -0.15629272 -0.45222124 0.2942553 0.1505367 -0.2935159
0.15001006 -0.22444515 -0.38437757 0.14188112 -0.3635808 -0.26913494 -0.3898849 -0.0730557
-0.2780817 0.37460476 0.43852955 0.2399547 0.6348113 -0.21737158 0.4225163 0.27459264
-0.16348174 0.44893938 -0.41246527 -0.09584101 0.050306763 0.05393347 0.07045661 -0.36959255
0.47511807 -0.21175323 0.31522247 -0.027797006 0.22139576 0.23761551 -0.16429937 -0.17254516
-0.1455802 0.33452 0.35878628 0.26138923 -0.60823494 -0.36723426 -0.3569481 -0.42410922
-0.11094385 -0.14578941 0.19817092 -0.1618842 0.4200901 0.06984363 0.19043635 0.21875583
0.27310243 0.18560162 -0.18138123 0.061406445 0.26230744 -0.18272914 -0.22057864 -0.38856688
-0.477874 0.009831457 0.21183757 -0.54455256 0.09622544 0.3203941 -0.20406282 0.27210608
0.4056736 -0.28334254 0.044115655 -0.03610223 -0.22855239 -0.027522424 -0.5604433 -0.29127455
0.18315484 0.37590963 0.14697133 0.36050943 -0.1867993 -0.48252356 -0.14975905 -0.40932363
-0.38906276 0.10325763 0.14871436 -0.38087884 0.22555777 -0.31786418 -0.22872794 -0.046751153
0.3002711 -0.45248386 -0.07830125 0.21450044 0.04231638 0.14694631 0.34424815 -0.36382678
00000000: 1e84 5b3e b7fd 2e3e 0dbe 07be 5854 27be
00000010: 9c39 003e fb4c 3a3d ca79 e73d aa52 633d
00000020: acf9 b43d 09e2 8cbc f593 60be 49f6 83be
00000030: c7a4 623e 7bd8 313e 7a9f b7bd 3916 123c
00000040: 8bec 863e e438 55bd 8aeb 793e d688 ba3d
00000050: e09a c3bd ddb6 be3d 44b6 153e 8e79 253d
00000060: db75 a53e 5826 1e3c d677 5a3e d476 073e
00000070: 09e9 12be 43f1 68bd 9341 3abe 9e1b 30be
00000080: aced 143e 26d1 093e eb8c d4bd c642 043e
00000090: 6c50 e53d 1130 48be d42a 883e 97ff 6d3e
000000a0: d0c9 75be 09fe 64be 07a3 6abe fdf4 9dbd
000000b0: 7af1 d7bd b05e 4cbd f228 e9bd e2ce 5ebe
000000c0: 7681 20be acde febd 8345 753d 4fb0 8a3d
000000d0: d143 0e3e 7bbe 5f3e 128e 13be 1937 bbbd
000000e0: b02e b93d 770f 513e d130 39be ae58 5fbe
000000f0: df63 113e ee21 b13d a267 2e3e 0a27 1a3d
00000100: 1c73 67be b4f9 80be aadf 3abe f4fe 99bd
00000110: 96e2 5b3e 58e1 583e 8c03 a9bd b990 d93d
00000120: 6974 063e d9d4 1f3e 4870 823d be0c a53d
00000130: f2d0 05bd c5b7 68bd 3bd0 6bbe e8ba 42be
00000140: ed24 d93c 83aa 113c 1df0 6fbe 5d4c 33be
00000150: 8898 493e 2b64 603e 8db9 36be 567a 85bc
00000160: 0680 6b3d 6300 423e c37e 73be a190 77be
00000170: 13f8 6fbd d587 333e 1823 3cbe acb0 1dbd
00000180: 68b5 55bd 7e9c 16be 60cb 8f3d 2fd2 2e3d
00000190: 2e0c 753e 5209 13be 9e6b 5e3e 9ee9 0c3e
000001a0: 64e5 49be 0d7d 56be 07d8 8cbe 9b4d 71be
000001b0: 4b21 983d 867a ce3d 3f50 5dbe 8e14 5abe
000001c0: 4098 21bd d8bf 72bc f23f 72be 960d 80be
000001d0: 27e8 43bd 1d6b 48be 1912 3c3e 09d1 163e
000001e0: 7195 1cbe aef6 4bbe 496f 113e 700f 8d3d
000001f0: f29b 6d3c 5fa1 283d 33c5 07be e571 4dbe
00000200: 806b fd3e 2e91 63be da49 a53e e8d1 49be
00000210: 395c e8be 4990 9dbe b753 4cbe 4351 32be
00000220: ae13 a0be a7d2 d03e 8c19 843e 7021 a63e
00000230: 5b05 bbbe 53f5 80be e35d 313e 310d 9f3e
00000240: fb30 d3be 4a22 9b3d 3478 85be e25e 253d
00000250: 0d8f 683e 0e93 a8be b378 6fbe 0169 7cbe
00000260: 2df3 bebe f0ba 59be beb1 c7be 330b 20be
00000270: 8b89 e7be a1a8 963e 4b26 1a3e b747 96be
00000280: 3d9c 193e f3d4 65be 23cd c4be 4949 113e
00000290: 4327 babe 0ecc 89be fe9e c7be 3a9e 95bd
000002a0: b960 8ebe 32cc bf3e f286 e03e afb6 753e
000002b0: fe82 223f a896 5ebe 0e54 d83e 6897 8c3e
000002c0: c267 27be 62db e53e a62e d3be 4b48 c4bd
000002d0: 770e 4e3d 58e9 5c3d 8e4b 903d 3c3b bdbe
000002e0: ad42 f33e d7d5 58be d764 a13e 8cb6 e3bc
000002f0: 92b5 623e 7b51 733e 183e 28be aeaf 30be
00000300: fa12 15be 3546 ab3e d6b2 b73e cfd4 853e
00000310: 49b5 1bbf 2106 bcbe e7c1 b6be d824 d9be
00000320: 8736 e3bd d249 15be 51ed 4a3e f9c4 25be
00000330: 0d16 d73e 2d0a 8f3d bf01 433e 8701 603e
00000340: 15d4 8b3e 5a0e 3e3e 00bc 39be 5385 7b3d
00000350: 294d 863e 591d 3bbe 5edf 61be 3df2 c6be
00000360: e7ab f4be 1f14 213c f3eb 583e cc67 0bbf
00000370: d811 c53d b20a a43e d8f5 50be 7d51 8b3e
00000380: 73b4 cf3e 4612 91be 9eb2 343d efdf 13bd
00000390: a309 6abe b576 e1bc 3679 0fbf f021 95be
000003a0: f18c 3b3e 3a77 c03e a77f 163e b194 b83e
000003b0: 5148 3fbe 540d f7be 705a 19be de92 d1be
000003c0: 3c33 c7be bc78 d33d 9448 183e 8d02 c3be
000003d0: 9ef8 663e 18bf a2be a837 6abe 237e 3fbd
000003e0: 22bd 993e f7ab e7be 685c a0bd 01a6 5b3e
000003f0: f153 2d3d 1879 163e 4b41 b03e 8147 babe

fc.0.bias f4 [37]
0.039976485 0.08539561 -0.18296555 -0.08751639 -0.198283 0.13481206 0.031709023 0.05142497
0.044813756 0.2233136 -0.03219635 0.0020853993 -0.049492855 0.1832062 -0.09064491 -0.111346684
-0.16168936 0.10926343 0.18710764 0.110724285 -0.059983715 -0.13650732 -0.04858848 -0.08875518
-0.020331917 0.17017978 0.045768764 -0.00014201575 -0.008889627 0.015334578 -0.12913339 0.13071309
0.14964144 -0.19029877 0.12835366 0.23166913 0.026116911
00000000: 62be 233d e5e3 ae3d 525b 3bbe cb3b b3bd
00000010: b30a 4bbe 2c0c 0a3e 52e1 013d fda2 523d
00000020: a18e 373d 52ac 643e 52e0 03bd 32ab 083b
00000030: 05b9 4abd 689a 3b3e 0aa4 b9bd bb09 e4bd
00000040: e591 25be 81c5 df3d 2599 3f3e 6ac3 e23d
00000050: 7cb1 75bd 93c8 0bbe b704 47bd 47c5 b5bd
00000060: 1f8f a6bc 9c43 2e3e 0778 3b3d 10ea 14b9
00000070: cca5 11bc e23d 7b3c 8b3b 04be a7d9 053e
00000080: 9b3b 193e aedd 42be 246f 033e ac3a 6d3e
00000090: 22f3 d53c

onnx::Conv_34 f4 [16, 1, 3, 3]
-0.43847454 0.63436127 -2.4259713 -1.1945522 -0.5696075 0.27268517 0.23758864 1.9345242
0.050497063 1.2655221 -0.26370266 -0.6688984 -2.1787596 -1.1604596 -1.2078836 -0.54082614
0.7623908 0.94792837 -0.81441116 -0.901605 0.07967336 1.9540168 -0.4796979 1.0204686
0.28927827 -0.48915333 1.2751594 -0.69433045 -0.12707758 -0.5349731 -0.36157814 0.79675645
-0.52956927 -1.0294417 -0.8031916 -1.0147434 -1.049963 2.6938784 0.67045903 0.6073379
0.37812498 -0.34503198 0.16963553 -2.3358562 -1.353713 -0.46877417 1.0467705 0.78417015
-0.818672 0.045945276 0.60765284 1.3297044 0.69552886 -0.0017809347 0.8768824 -1.0166979
-0.51050603 -0.7298265 -1.1349746 -0.46867114 0.8248342 0.517095 -0.4860504 0.8688474
0.7399955 0.42030838 0.20443416 0.18105806 0.680983 1.6664732 -0.9443588 -0.34775966
0.90450746 1.2874515 0.79821646 0.78634363 0.52668977 -0.6719516 -0.7200903 -1.3184267
-1.681699 1.2067559 1.4771988 -1.7171868 -0.054265603 0.16756973 -0.43460107 -1.0761487
1.0386854 -1.7325842 0.62334794 0.21209201 0.37031722 0.3997504 -1.3767016 -1.3956212
0.99996245 0.6693215 -0.8243243 -0.31715018 1.2866888 0.8706159 -0.98422736 0.18150254
-0.7885375 -0.8072258 -1.2514372 -0.9269696 -1.5319381 -0.021768328 -0.6873387 0.7377546
-1.2820908 1.4967831 1.912842 -1.5245544 -1.1513771 -0.00012324461 0.5344882 0.33599582
1.06507 0.3733251 -1.0327555 1.221193 -2.2689984 -1.1830523 -0.524072 -1.0869466
-0.4004472 -0.9209346 -0.07706596 0.5637137 -1.148014 -0.065704376 0.13747343 0.33136246
-0.17994949 0.1985461 0.62321824 0.3353942 0.79041094 0.48091337 0.577171 0.44776937
00000000: bc7f e0be 8065 223f 1d43 1bc0 16e7 98bf
00000010: ccd1 11bf 649d 8b3e 704a 733e 7d9e f73f
00000020: 02d6 4e3d a1fc a13f 0904 87be ed3c 2bbf
00000030: cc70 0bc0 f189 94bf ee9b 9abf 9573 0abf
00000040: 0b2c 433f 6fab 723f 407d 50bf 96cf 66bf
00000050: c92b a33d 391d fa3f f79a f5be b79e 823f
00000060: 481c 943e 4e72 fabe 6c38 a33f a4bf 31bf
00000070: a020 02be fff3 08bf c520 b9be 3bf8 4b3f
00000080: da91 07bf bfc4 83bf f79d 4dbf 1de3 81bf
00000090: 3065 86bf 8168 2c40 34a3 2b3f 7f7a 1b3f
000000a0: 9999 c13e 08a8 b0be f0b4 2d3e ab7e 15c0
000000b0: 7846 adbf 2b03 f0be 93fc 853f 60bf 483f
000000c0: 7d94 51bf 1d31 3c3d 238f 1b3f c133 aa3f
000000d0: 2e0e 323f 416e e9ba 5d7b 603f 2823 82bf
000000e0: 86b0 02bf e9d5 3abf d946 91bf aaf5 efbe
000000f0: 5628 533f 5760 043f 99db f8be c96c 5e3f
00000100: 5870 3d3f a932 d73e 3057 513e 4967 393e
00000110: e754 2e3f fe4e d53f 80c1 71bf 8e0d b2be
00000120: cd8d 673f 36cb a43f ea57 4c3f d14d 493f
00000130: 24d5 063f 0505 2cbf d757 38bf 35c2 a8bf
00000140: ea41 d7bf fa76 9a3f da14 bd3f c7cc dbbf
00000150: 9c45 5ebd 6697 2b3e 0884 debe 3ebf 89bf
00000160: a5f3 843f 52c5 ddbf bb93 1f3f a62e 593e
00000170: 389a bd3e 16ac cc3e c237 b0bf b7a3 b2bf
00000180: 8afd 7f3f a758 2b3f eb06 53bf 8261 a2be
00000190: 38b2 a43f afe0 5e3f 53f6 7bbf cddb 393e
000001a0: 98dd 49bf 5aa6 4ebf 182f a0bf e14d 6dbf
000001b0: 8c16 c4bf 7e53 b2bc 6ef5 2fbf 7cdd 3c3f
000001c0: 8d1b a4bf 9796 bf3f 02d8 f43f 9924 c3bf
000001d0: 5360 93bf 393b 01b9 38d4 083f a507 ac3e
000001e0: 3754 883f 7824 bf3e 5531 84bf 0d50 9c3f
000001f0: 4537 11c0 426e 97bf 9529 06bf 1121 8bbf
00000200: 6a07 cdbe 5fc2 6bbf c2d4 9dbd 8b4f 103f
00000210: 1ff2 92bf 0490 86bd d6c5 0c3e 57a8 a93e
00000220: ae44 38be ab4f 4b3e 3b8b 1f3f cab8 ab3e
00000230: 5f58 4a3f 473a f63e 7bc1 133f 0742 e53e

onnx::Conv_35 f4 [16]
-0.20891525 -0.80825365 0.48502257 -0.9663874 -0.22949237 0.9075576 -0.33054748 0.83834296
-0.03298068 -0.08031376 0.006268874 -0.82178617 -0.6579846 -0.23212554 -0.7713003 0.954684
00000000: e1ed 55be b6e9 4ebf e154 f83e 2a65 77bf
00000010: 0c00 6bbe b255 683f 853d a9be a59d 563f
00000020: c016 07bd 8a7b a4bd 206b cd3b 9460 52bf
00000030: ae71 28bf 51b2 6dbe f073 45bf 2c66 743f

onnx::Conv_37 f4 [32, 16, 3, 3]
0.3382051 0.29654175 0.047466494 -0.311613 -0.059418567 -0.37849876 0.43642908 0.4659869
-0.025311364 1.0353394 1.5187075 1.1958753 0.28538588 -0.23886746 -0.5460289 0.07944577
-0.27961522 0.02229119 0.29095176 0.058411386 -0.08448789 -0.7476739 0.03355856 -0.10946768
0.43039215 0.64453197 0.6055529 -0.33835316 0.22976242 1.1629862 -0.65125877 -0.30827928
-0.7581674 0.16055888 0.6363224 0.6950393 -0.5112065 0.23043536 -0.13430597 0.29809037
0.13530016 0.56872517 0.46745452 0.021674944 0.29273674 0.57438433 0.1309374 0.5618564
0.027074514 0.020532252 -0.4376711 0.6472754 0.75987107 0.55414385 0.11032801 -0.23676741
0.44463456 -0.20411211 0.18701623 0.1504608 -0.49437445 0.071807034 -0.31721544 0.25185
-0.9308715 0.31969732 0.2642578 0.23692521 -0.33532882 0.49229208 0.2357908 0.13671906
0.43365484 0.1311978 0.26871186 -0.16539967 0.2715624 0.29084975 0.94165504 -0.005421824
0.71454734 0.021197302 -0.5340893 0.013776958 -0.08415639 -0.09786206 -0.059564244 -0.48599768
-0.63469607 -0.89485365 -0.4263185 0.035145115 -0.09217429 -0.3386829 -0.4560276 -0.008421456
-1.3776438 -0.06912924 -0.48471105 0.05097662 -0.2149819 -0.4294932 -0.42234838 0.04758645
0.19974272 -0.66588116 -0.13940607 -0.93917733 -0.24120846 -0.8692001 -0.54375654 -0.8355385
-0.6920625 -0.41964474 -0.74413216 -0.5690411 -0.47837654 0.8185409 0.97706497 1.1582036
0.8407121 -0.16527873 -0.22300448 0.10180408 0.34110492 0.24153207 -0.23936613 -0.028311895
0.139846 -0.24635296 -0.3007025 0.05912516 -0.15488249 0.52095217 1.0147011 -0.914323
0.22554956 -0.7394088 -0.5390569 -0.59422445 -0.5824442 0.4072478 -0.057477973 -0.046054877
-0.26671585 -0.08328984 -0.42978153 0.3296002 0.22673042 0.13389254 -0.040485527 0.14799382
-0.30918652 1.0131376 0.92643833 1.3432854 0.10530933 -0.032030728 -0.32295805 0.15168583
-0.018084018 -0.43897715 -0.025467727 -0.17511922 -0.4257484 0.3605931 0.41971 0.7400143
0.2545767 -0.06621717 -0.194946 0.51931334 1.232114 0.90516573 -0.8636598 -0.50042546
-0.25875393 0.17708147 0.5457923 0.43802944 -0.60878736 -0.20287342 -0.27526596 -0.021637807
-0.25706404 0.3246196 -0.65394896 -0.587576 -0.39977387 -0.28584042 -0.28865352 0.19600944
-0.23933092 -0.11687189 -0.32782704 -0.18523888 -0.54994315 -0.22786303 0.33250502 0.09729192
0.16862202 -0.5620305 -0.70622003 0.12822796 -0.16921467 -0.044174545 0.053382408 -0.9778653
-0.74036574 0.027439304 -0.3425517 0.53942543 -0.15466392 -0.25476885 -0.59483486 -0.64890534
0.0818952 0.31643182 -0.073390454 0.83810717 0.43473345 0.781057 0.9204579 0.72532403
0.83991414 0.55175817 -0.020643556 0.19099483 -0.4676242 -0.22763103 -0.3533558 -0.297974
-0.1658869 -0.51400226 -0.117929064 -0.2955593 0.9560927 -0.0032031587 0.22464964 -0.49026948
0.013819128 -0.30734113 -0.46428975 1.5707134 1.2283645 0.81566143 0.40977272 -0.0011990459
-0.3958668 0.68601155 -0.22139601 0.51218253 -0.22414787 0.017974708 -0.11868588 0.1874389
00000000: 3829 ad3e 52d4 973e 3a6c 423d bd8b 9fbe
00000010: e260 73bd 97ca c1be a273 df3e d695 ee3e
00000020: c759 cfbc 0086 843f 0265 c23f 7112 993f
00000030: 191e 923e ac99 74be 8dc8 0bbf 77b4 a23d
00000040: ba29 8fbe 049c b63c a1f7 943e c740 6f3d
00000050: fd07 adbd 8f67 3fbf b374 093d 9730 e0bd
00000060: 5c5c dc3e 0c00 253f 8405 1b3f a03c adbe
00000070: d746 6b3e bbdc 943f e5b8 26bf c8d6 9dbe
00000080: 4217 42bf 8c69 243e 06e6 223f 18ee 313f
00000090: 6ede 02bf 3ff7 6b3e 8187 09be 4d9f 983e
000000a0: 208c 0a3e f997 113f 3356 ef3e a78f b13c
000000b0: 97e1 953e da0a 133f 7414 063e d2d5 0f3f
000000c0: 5fcb dd3c 4133 a83c 6d16 e0be d7b3 253f
000000d0: e986 423f 5fdc 0d3f a7f3 e13d 2873 72be
000000e0: 24a7 e33e c402 51be 2f81 3f3e 6512 1a3e
000000f0: a61e fdbe 910f 933d 106a a2be 7cf2 803e
00000100: 984d 6ebf 5eaf a33e cc4c 873e 869c 723e
00000110: 38b0 abbe b50d fc3e 2573 713e 1500 0c3e
00000120: 0208 de3e b758 063e 9a94 893e 885e 29be
00000130: 3a0a 8b3e 42ea 943e 4e10 713f 8ea9 b1bb
00000140: 93ec 363f f7a5 ad3c 14ba 08bf c0b8 613c
00000150: 2f5a acbd e76b c8bd a3f9 73bd b0d4 f8be
00000160: 717b 22bf 2115 65bf 6b46 dabe 53f4 0f3d
00000170: e0c5 bcbd d867 adbe 737c e9be 26fa 09bc
00000180: a256 b0bf a293 8dbd 0c2c f8be dccc 503d
00000190: 3724 5cbe 88e6 dbbe 0c3e d8be 02ea 423d
000001a0: 5b89 4c3e 3077 2abf 77c0 0ebe ed6d 70bf
000001b0: 5aff 76be e683 5ebf a133 0bbf dae5 55bf
000001c0: 022b 31bf addb d6be 727f 3ebf adac 11bf
000001d0: c5ed f4be e58b 513f ee20 7a3f 0440 943f
000001e0: e838 573f d43e 29be 495b 64be a87e d03d
000001f0: 4ea5 ae3e 2f54 773e 651c 75be 59ee e7bc
00000200: ca33 0f3e f343 7cbe aef5 99be 392d 723d
00000210: 8499 1ebe 1f5d 053f bae1 813f 1211 6abf
00000220: 77f6 663e e549 3dbf a2ff 09bf 181f 18bf
00000230: 101b 15bf c982 d03e 066e 6bbd 0aa4 3cbd
00000240: fb8e 88be dd93 aabd 530c dcbe 5bc1 a83e
00000250: 052c 683e 201b 093e 27d4 25bd b18b 173e
00000260: b24d 9ebe 7eae 813f 102b 6d3f c7f0 ab3f
00000270: 6bac d73d a732 03bd c25a a5be 8853 1b3e
00000280: ef24 94bc 9dc1 e0be b2a1 d0bc 7452 33be
00000290: b2fb d9be a99f b83e 3be4 d63e 9471 3d3f
000002a0: e157 823e de9c 87bd ed9f 47be b8f1 043f
000002b0: e9b5 9d3f f1b8 673f cf18 5dbf e21b 00bf
000002c0: 657b 84be d854 353e 0bb9 0b3f 6545 e03e
000002d0: 7dd9 1bbf 0dbe 4fbe a9ef 8cbe c541 b1bc
000002e0: e69d 83be 8a34 a63e 3369 27bf 616b 16bf
000002f0: 29af ccbe ad59 92be 65ca 93be b3b6 483e
00000300: 2a13 75be 885a efbd f2d8 a7be 43af 3dbe
00000310: 13c9 0cbf ed54 69be 193e aa3e fc40 c73d
00000320: 40ab 2c3e 3be1 0fbf d6ca 34bf 314e 033e
00000330: 9c46 2dbe 5ef0 34bd 83a7 5a3d 6155 7abf
00000340: 9c88 3dbf 64c8 e03c f062 afbe c917 0a3f
00000350: 3860 1ebe 1071 82be 1947 18bf a91e 26bf
00000360: acb8 a73d 5a03 a23e bc4d 96bd 318e 563f
00000370: 6295 de3e 5af3 473f 21a3 6b3f d6ae 393f
00000380: 9d04 573f 0640 0d3f ad1c a9bc 2694 433e
00000390: 706c efbe 1c18 69be 0deb b4be 0c90 98be
000003a0: 41de 29be a795 03bf cb84 f1bd 8c53 97be
000003b0: 7ec2 743f 16ec 51bb 8e0a 663e 9a04 fbbe
000003c0: a069 623c d15b 9dbe 63b7 edbe 230d c93f
000003d0: 0c3b 9d3f 30cf 503f bbcd d13e 4e29 9dba
000003e0: 0eaf cabe 749e 2f3f a3b5 62be 651e 033f
000003f0: 0587 65be b23f 933c 9511 f3bd fcef 3f3e

onnx::Conv_38 f4 [32]
-0.13919395 1.6946647 2.9502153 3.6290004 0.08042914 1.4409077 0.54537714 0.5201276
1.3527137 -0.6431525 2.7552612 2.0996618 2.4202945 0.6857493 0.8810406 1.7013884
2.6762092 1.8735393 1.2324027 1.3937238 0.016802639 1.4943515 2.0692375 2.8719392
1.1662265 0.66656554 1.7655653 0.5592053 0.6211846 0.9797121 1.2056109 2.2871354
00000000: dc88 0ebe c6ea d83f 54d0 3c40 8b41 6840
00000010: 08b8 a43d aa6f b83f d69d 0b3f 1527 053f
00000020: b925 ad3f a4a5 24bf 3356 3040 dc60 0640
00000030: 1be6 1a40 448d 2f3f e08b 613f 18c7 d93f
00000040: 0347 2b40 23d0 ef3f 5fbf 9d3f 8b65 b23f
00000050: b0a5 893c e946 bf3f 636e 0440 dacd 3740
00000060: e946 953f 0aa4 2a3f 0bfe e13f 1428 0f3f
00000070: f405 1f3f 6ace 7a3f 7551 9a3f 6d60 1240
